run_scripts/new-snrl-v1_2023-01-12/dynamics_models/model_0.pth (torch, 5727 bytes, 4 tensors)

object_model.layers.0.weight f4 [100, 5]
0.051010206 0.2929384 -0.329503 -0.11007975 0.07866214 0.006147623 -0.40980613 0.03218445
-0.10251862 0.0011017919 0.030030945 0.047613457 -0.41596138 0.17329401 -0.1472941 0.39632902
-0.105704896 -0.21970744 -0.20253347 0.32788515 -0.1651246 -0.14918563 0.39218163 0.2543708
0.43969232 0.0827253 -0.0697769 0.042261235 -0.41669878 -0.21125518 -0.036654446 0.23103465
-0.24458046 -0.4314722 -0.3792519 -0.41222906 0.07494855 -0.020092607 -0.32458124 -0.14636034
-0.20948789 -0.14331222 0.21399556 -0.16603151 -0.3489909 -0.3195935 -0.4196009 -0.35290924
0.061698876 -0.06989725 -0.3320197 -0.2923993 -0.07827973 0.0017857692 -0.30520087 -0.24213111
-0.22297843 0.08643582 0.0069694696 -0.19047281 -0.32175213 0.046457678 0.33548743 0.01927945
0.29036587 -0.30925936 -0.09760843 0.25906536 -0.051068347 -0.010909098 -0.4275581 -0.39934146
-0.18128595 0.245361 -0.2850446 -0.38988677 0.12718064 0.029434353 -0.043049872 0.20851785
-0.21441364 -0.4257418 0.3643501 -0.28421962 -0.046387047 0.112477496 0.38378602 0.31335422
-0.24099109 -0.13966912 0.11252297 0.3617757 0.043722756 -0.24336486 -0.1713236 -0.122546874
0.0004065472 0.21458495 -0.021090053 -0.041746207 -0.327313 0.13748258 0.0051030316 0.30925632
-0.17762494 0.052514933 0.07054427 0.34542495 0.11875989 0.30997214 0.221537 -0.4453342
-0.075418755 -0.33022836 -0.4391102 0.31812263 -0.095985025 -0.3779551 -0.16115391 -0.119829774
-0.19345854 -0.44429168 -0.019059636 0.031180093 -0.19552815 -0.3329916 0.033776768 -0.28417283
-0.439609 -0.2799252 -0.058548648 -0.10864085 -0.059010517 0.13250983 -0.41929007 0.06494589
-0.010701219 -0.16644183 -0.2334571 -0.14267501 -0.068083555 0.00938343 0.2582723 -0.2505874
0.27650362 -0.03994675 0.32345802 -0.20929115 -0.36725628 0.40654653 0.17745507 -0.39248422
0.3891216 -0.32622117 -0.030180901 0.39967674 -0.27100304 0.26043135 -0.2716483 -0.2852636
-0.1562289 -0.3346388 -0.05006667 0.13434458 -0.2161713 0.22131577 0.14765853 0.39113486
0.048666317 -0.024599899 -0.28066126 0.25772578 0.41949344 -0.08297625 0.12185866 -0.20882839
-0.31787065 -0.010954291 -0.26440307 -0.4307249 -0.1358366 0.34047884 -0.05201606 -0.2360067
-0.43575817 0.004312573 0.089502834 0.3403411 0.12366341 -0.20845678 0.24334478 0.32604718
0.11327139 -0.42124286 0.073979914 0.4153534 -0.05461922 -0.3851366 -0.016717572 -0.26461774
0.24810967 -0.19826967 -0.11969502 0.025183916 0.22674406 0.14125407 -0.4340035 -0.25652978
0.25458932 0.27218664 0.32733744 0.07294774 0.13216229 -0.009272605 0.09970403 -0.03607005
-0.2508928 -0.27553782 -0.4183405 0.08832204 0.12462052 0.16236897 0.19934441 0.090558484
-0.34297192 -0.2579695 0.36060768 -0.31638145 -0.1429294 0.42587584 -0.41680482 0.3987197
0.4460677 0.38312352 0.31021446 0.10359609 -0.042068243 0.021081924 0.19634753 0.13589925
0.36624527 -0.0787322 0.09181733 -0.28437114 -0.20622288 -0.3867977 -0.14110674 -0.2934421
0.2635796 0.44713122 -0.18521269 -0.3816379 0.07534245 -0.42904538 0.37500477 -0.44405863
00000000: 14f0 503d 06fc 953e 9eb4 a8be 7e71 e1bd
00000010: 9e19 a13d 0072 c93b 1cd2 d1be d8d3 033d
00000020: 48f5 d1bd 006a 903a 7503 f63c 5406 433d
00000030: e4f8 d4be fc73 313e 44d4 16be a3eb ca3e
00000040: cf7b d8bd fdfa 60be ef64 4fbe 90e0 a73e
00000050: 6c16 29be 1ec4 18be 08cc c83e e43c 823e
00000060: 5a1f e13e e26b a93d 31e7 8ebd 1e1a 2d3d
00000070: 8b59 d5be 4753 58be f922 16bd 5994 6c3e
00000080: 4d73 7abe ede9 dcbe 4e2d c2be b00f d3be
00000090: a07e 993d 4099 a4bc 832f a6be 7cdf 15be
000000a0: fe83 56be 70c0 12be a721 5b3e 2a04 2abe
000000b0: efae b2be c2a1 a3be eed5 d6be 85b0 b4be
000000c0: f6b7 7c3d 4a26 8fbd 7cfe a9be 5cb5 95be
000000d0: 2051 a0bd 7910 ea3a 4a43 9cbe 38f1 77be
000000e0: 7554 64be 4305 b13d 2660 e43b 4e0b 43be
000000f0: b2bc a4be 684a 3e3d 02c5 ab3e f0ef 9d3c
00000100: d6aa 943e 3e57 9ebe eee6 c7bd 37a4 843e
00000110: 0b2d 51bd 13bc 32bc e5e8 dabe 7c76 ccbe
00000120: 06a3 39be ea3f 7b3e 5ef1 91be 3d9f c7be
00000130: a43b 023e 5020 f13c 1055 30bd b485 553e
00000140: 408f 5bbe d4fa d9be 198c ba3e 3c85 91be
00000150: 5800 3ebd 9a5a e63d 9a7f c43e f76f a03e
00000160: 5ec6 76be 6c05 0fbe 7172 e63d aa3a b93e
00000170: a216 333d a334 79be 746f 2fbe dbf9 fabd
00000180: d725 d539 28bc 5b3e 0cc5 acbc 12fe 2abd
00000190: 9295 a7be 3cc8 0c3e 5537 a73b d856 9e3e
000001a0: 50e3 35be e619 573d 8479 903d 8adb b03e
000001b0: 6338 f33d abb4 9e3e 98da 623e d802 e4be
000001c0: 2675 9abd b113 a9be 0dd3 e0be f8e0 a23e
000001d0: cc93 c4bd 5583 c1be 8805 25be 5069 f5bd
000001e0: ff19 46be 337a e3be f422 9cbc 656d ff3c
000001f0: 8838 48be e07d aabe 8259 0a3d 1a7f 91be
00000200: 6e14 e1be 5b52 8fbe b5d0 6fbd 187f debd
00000210: 03b5 71bd a8b0 073e 30ad d6be 5a02 853d
00000220: 2a54 2fbc ba6f 2abe 610f 6fbe 6619 12be
00000230: 646f 8bbd f5bc 193c 443c 843e fe4c 80be
00000240: e291 8d3e 349f 23bd 4a9c a53e 6b50 56be
00000250: 0409 bcbe de26 d03e c8b6 353e b1f3 c8be
00000260: f23a c73e 7606 a7be f03d f7bc 6ea2 cc3e
00000270: e9c0 8abe 4257 853e 7c15 8bbe 120e 92be
00000280: 78fa 1fbe c755 abbe b512 4dbd a091 093e
00000290: 025c 5dbe 9aa0 623e cc33 173e d442 c83e
000002a0: 5556 473d ba85 c9bc d5b2 8fbe a2f4 833e
000002b0: d8c7 d63e 74ef a9bd 0891 f93d 1cd7 55be
000002c0: f1bf a2be a079 33bc d75f 87be f987 dcbe
000002d0: c018 0bbe 3e53 ae3e cb0e 55bd beab 71be
000002e0: b21b dfbe 7c50 8d3b 434d b73d 3041 ae3e
000002f0: 3e43 fd3d b275 55be 602f 793e a8ef a63e
00000300: d5fa e73d 25ad d7be c882 973d 33a9 d43e
00000310: 67b8 5fbd a030 c5be 4af3 88bc fa7b 87be
00000320: 7610 7e3e 3407 4bbe aa22 f5bd 804e ce3c
00000330: 982f 683e e8a4 103e b535 debe df57 83be
00000340: 8859 823e 0c5c 8b3e c698 a73e a065 953d
00000350: 8d55 073e 20ec 17bc a031 cc3d 30be 13bd
00000360: 0575 80be 4b13 8dbe ba30 d6be 30e2 b43d
00000370: 0b39 ff3d 0d44 263e f120 4c3e ba76 b93d
00000380: 049a afbe 9414 84be 92a1 b83e c0fc a1be
00000390: 165c 12be 660c da3e 7167 d5be fd24 cc3e
000003a0: fc62 e43e c428 c43e 6ed4 9e3e 302a d43d
000003b0: c04f 2cbd 00b4 ac3c 540f 493e 2c29 0b3e
000003c0: 8084 bb3e 593e a1bd b90a bc3d 1899 91be
000003d0: 172c 53be 590a c6be 497e 10be 0b3e 96be
000003e0: e8f3 863e 62ee e43e 65a8 3dbe 0b66 c3be
000003f0: 244d 9a3d d6ab dbbe a000 c03e a75b e3be

object_model.layers.0.bias f4 [100]
0.44897345 -0.3042043 0.41668794 0.42749503 -0.166848 0.37718424 0.2631379 -0.1756562
0.00028014346 0.22448678 0.07428938 0.4461708 -0.031321615 0.40310964 0.44047675 -0.16224632
0.01881961 0.42403996 0.21824753 0.2908371 -0.21620147 0.37988466 -0.028712314 -0.41748542
0.27973798 0.33150485 0.27075237 0.04630488 0.22135073 0.068157405 -0.19343472 -0.30054957
0.005185358 0.024774218 -0.220699 -0.21876372 0.40403232 0.24879764 -0.29215848 0.046757646
0.19423133 0.105240256 -0.108275674 -0.25228503 0.2517695 0.19868428 0.12066323 -0.3128252
0.22944012 0.17939089 0.39951497 0.35800317 -0.3311323 -0.15757313 -0.18980992 -0.3186654
0.27534106 -0.119149975 0.043348107 0.16936588 0.3440021 -0.20430619 0.20638329 -0.21053383
-0.21361196 -0.14717373 -0.15603408 0.2794463 0.36719286 -0.30599052 0.16479133 -0.1873483
-0.25980705 0.05865163 0.31019613 -0.39234984 -0.34489638 0.40154982 0.20848927 0.13835189
0.027899705 -0.34459305 0.053518254 -0.18879107 0.44042847 0.021503074 0.38329023 -0.38213533
-0.1597095 0.3922032 0.17495765 -0.027864283 -0.050799202 -0.04596175 -0.06960602 0.4222681
-0.011766565 0.14223123 0.3638043 0.36021858
00000000: d9df e53e aac0 9bbe 1f58 d53e a1e0 da3e
00000010: 34da 2abe 4b1e c13e 03ba 863e 38df 33be
00000020: 38e0 9239 dddf 653e 0825 983d 8070 e43e
00000030: 184b 00bd 6364 ce3e 2b86 e13e e623 26be
00000040: 952b 9a3c c41b d93e 487c 5f3e 9ae8 943e
00000050: eb63 5dbe 3e80 c23e 1636 ebbc a6c0 d5be
00000060: d139 8f3e 01bb a93e 0ea0 8a3e 30aa 3d3d
00000070: c4a9 623e 1c96 8b3d c013 46be a2e1 99be
00000080: f0e9 a93b 4df3 ca3c ebfe 61be 9903 60be
00000090: 53dd ce3e cfc4 7e3e cc95 95be f284 3f3d
000000a0: 94e4 463e 3488 d73d a3bf ddbd 812b 81be
000000b0: efe7 803e e473 4b3e 491e f73d a02a a0be
000000c0: 5af2 6a3e 3fb2 373e 3a8d cc3e 314c b73e
000000d0: 2c8a a9be da5a 21be 885d 42be 1c28 a3be
000000e0: 81f9 8c3e e704 f4bd c98d 313d 406e 2d3e
000000f0: 0b21 b03e a435 51be 2456 533e 2e96 57be
00000100: 18bd 5abe b6b4 16be 66c7 1fbe 9613 8f3e
00000110: b400 bc3e caaa 9cbe 0fbf 283e 3cd8 3fbe
00000120: 6e05 85be b13c 703d 07d2 9e3e 14e2 c8be
00000130: 4296 b0be f097 cd3e 367e 553e 1eac 0d3e
00000140: ec8d e43c 806e b0be f535 5b3d 7252 41be
00000150: d77f e13e 3727 b03c 9e3e c43e 3ea7 c3be
00000160: e38a 23be dcce c83e 1928 333e a343 e4bc
00000170: d312 50bd 6342 3cbd 9a8d 8ebd 8633 d83e
00000180: 8dc8 40bc 10a5 113e 8f44 ba3e 926e b83e

object_model.layers.2.weight f4 [4, 100]
0.08641401 -0.014087938 0.061576504 -0.002361149 0.06508661 -0.0035949291 -0.083985455 -0.001653038
0.03918476 0.030296031 0.07177368 0.053334698 0.010115996 -0.019680873 -0.059319288 -0.06926509
-0.064554356 0.099318564 -0.032286953 0.09252969 -0.022596318 -0.07849549 -0.029318297 0.011054754
0.038962506 0.036660574 0.100757755 0.015465842 0.09879585 -0.08661787 0.06398181 0.054180093
-0.014827777 0.013164691 0.0722627 0.04864145 -0.06076719 -0.07736535 0.0062996913 0.018993596
-0.058040075 0.00016556247 0.08184436 0.010938644 -0.0082152095 -0.016378857 0.09744032 -0.033957615
0.062501565 0.015040597 0.03321145 -0.06758392 -0.009451784 -0.04474902 -0.0015600771 -0.082267836
0.043442223 0.02749803 0.07288768 0.034792643 -0.03824105 0.08676652 -0.05304303 0.093724795
-0.038636364 0.032729916 0.016567588 0.020228278 0.091754414 0.052844193 0.06660647 -0.091864884
0.047699235 0.024585666 0.015180472 -0.047946524 0.041579194 0.0883208 -0.035349738 -0.09729867
-0.006366869 0.015287254 0.051187795 0.024198133 0.08700228 0.035413433 0.0029069537 -0.06552142
-0.061974373 -0.0052269176 -0.04766817 -0.017353576 -0.03752245 0.075504 0.048219815 -0.06562635
0.095526904 0.034246337 -0.08474357 0.08911806 0.10362881 -0.035726823 0.08512672 0.10037349
-0.07231128 -0.063748136 -0.06446445 -0.029859379 -0.06368568 -0.06581358 0.07081692 0.028114146
-0.016466454 0.065315716 0.038476422 0.026726536 0.075575136 0.06402351 0.015531886 -0.034221005
0.065813065 0.05577448 0.017040068 0.06927123 0.0052887546 -0.03213339 0.018570948 0.061051965
0.010708771 0.085317165 0.002080515 -0.09152285 -0.04562702 -0.045462776 -0.043000963 -0.053131163
0.090410635 0.004752591 0.097604014 0.08100639 0.0629422 0.080389515 0.022816252 0.031115957
-0.010009162 -0.0006986946 -0.055896666 -0.094619766 -0.018707458 -0.004455077 -0.0105504915 -0.0899557
-0.07659708 -0.064282626 -0.0016147345 -0.085571244 0.023439148 -0.019446429 -0.004123894 -0.032387163
-0.07188991 -0.072991654 0.04049287 0.048738915 0.028474905 0.020498492 0.034423746 -0.06496954
0.045323554 0.008032004 -0.083720595 -0.05810584 -0.029112577 0.09963015 -0.077864625 -0.08002009
-0.039352395 -0.061726402 0.04960446 0.023678204 0.06857415 0.009920408 0.09037254 0.030403942
0.10128058 -0.01968628 -0.033219554 -0.06360689 0.021672703 -0.0050070486 -0.08865312 0.07634288
-0.050931096 -0.0824528 -0.06934335 0.03475917 0.056487706 -0.09381931 -0.057847805 -0.041029382
-0.023115093 -0.027868465 0.0994311 0.03979594 -0.095787406 0.0010861147 -0.08156782 -0.05402893
-0.04615045 0.0560231 -0.0763046 -0.0011094621 0.093405195 0.036738068 0.032945998 0.029116549
-0.07290875 0.034126636 -0.08638399 0.009406866 -0.048014864 -0.0020231435 -0.03427007 0.003256321
-0.0032575128 0.082871914 0.07482834 0.09755914 0.023701787 -0.040310055 0.0060643554 -0.041594576
0.012691554 -0.06984231 -0.09860132 -0.007531427 -0.012821563 0.0046507553 0.064061664 0.029692018
-0.005376617 0.02353044 -0.09499334 0.066366844 -0.043046307 0.00429411 0.0039887577 0.073520474
-0.04444791 0.046757963 0.062070705 -0.02589747 -0.05649152 0.033623956 0.0035210103 0.094754
00000000: d4f9 b03d 18d1 66bc a537 7c3d 82bd 1abb
00000010: 214c 853d e798 6bbb 9100 acbd c0aa d8ba
00000020: 3380 203d 622f f83c 14fe 923d 7c75 5a3d
00000030: 90bd 253c c839 a1bc c8f8 72bd dbda 8dbd
00000040: 1335 84bd 8867 cb3d 533f 04bd 3580 bd3d
00000050: ea1b b9bc 3ec2 a0bd ed2c f0bc 001f 353c
00000060: 2697 1f3d 6629 163d 155a ce3d 7164 7d3c
00000070: 7b55 ca3d b664 b1bd e508 833d f2eb 5d3d
00000080: 34f0 72bc b7b0 573c 77fe 933d 423c 473d
00000090: 04e7 78bd ba71 9ebd a46d ce3b 7598 9b3c
000000a0: 6ebb 6dbd d69a 2d39 049e a73d 0038 333c
000000b0: 1699 06bc f42c 86bc ca8e c73d 2417 0bbd
000000c0: d200 803d d66c 763c bb08 083d 7069 8abd
000000d0: a8db 1abc c04a 37bd 807b ccba 0a7c a8bd
000000e0: 79f0 313d 8c43 e13c 2346 953d bb82 0e3d
000000f0: a6a2 1cbd a5b2 b13d a643 59bd c9f2 bf3d
00000100: 2a41 1ebd ce0f 063d c0b8 873c c6b5 a53c
00000110: bde9 bb3d 2773 583d f968 883d a823 bcbd
00000120: 4660 433d e167 c93c 84b7 783c 9363 44bd
00000130: f24e 2a3d 89e1 b43d e3ca 10bd 8644 c7bd
00000140: 2ba1 d0bb 6477 7a3c 4baa 513d 2a3b c63c
00000150: 402e b23d ad0d 113d 9782 3e3b 1830 86bd
00000160: d7d8 7dbd 9046 abbb b33f 43bd 1629 8ebc
00000170: 24b1 19bd d7a1 9a3d 2482 453d 1c67 86bd
00000180: 9ca3 c33d e345 0c3d 098e adbd 8883 b63d
00000190: 573b d43d 4a56 12bd eb56 ae3d 9e90 cd3d
000001a0: f017 94bd 628e 82bd f005 84bd a89b f4bc
000001b0: a36d 82bd 45c9 86bd 7608 913d a34f e63c
000001c0: a8e4 86bc 3fc4 853d 7499 1d3d 9cf1 da3c
000001d0: 23c7 9a3d c21e 833d 7479 7e3c 532b 0cbd
000001e0: 00c9 863d c873 643d 9d97 8b3c 13de 8d3d
000001f0: 4a4d ad3b 4d9e 03bd 1a22 983c a011 7a3d
00000200: d773 2f3c c4ba ae3d 4059 083b 5570 bbbd
00000210: 66e3 3abd 2d37 3abd c721 30bd 10a0 59bd
00000220: 3629 b93d 9fbb 9b3b 9de4 c73d aee6 a53d
00000230: d7e7 803d 42a3 a43d 26e9 ba3c e4e6 fe3c
00000240: 78fd 23bc 9a28 37ba e7f3 64bd 02c8 c1bd
00000250: 6240 99bc e5fb 91bb f8db 2cbc b23a b8bd
00000260: eede 9cbd 9ca6 83bd 80a5 d3ba fa3f afbd
00000270: 7503 c03c 1e4e 9fbc bb21 87bb 67a8 04bd
00000280: 043b 93bd a67c 95bd dadb 253d 75a2 473d
00000290: 3444 e93c 74ec a73c eaff 0c3d c00e 85bd
000002a0: 31a5 393d ab98 033c b475 abbd 6400 6ebd
000002b0: 807d eebc e40a cc3d 7d77 9fbd 93e1 a3bd
000002c0: fa2f 21bd d3d4 7cbd 0c2e 4b3d cbf8 c13c
000002d0: 9b70 8c3d 3589 223c 3d15 b93d b011 f93c
000002e0: 316c cf3d 1f45 a1bc 3a11 08bd 5444 82bd
000002f0: f48a b13c 2b12 a4bb c48f b5bd a859 9c3d
00000300: 209d 50bd 03dd a8bd e303 8ebd a25f 0e3d
00000310: a75f 673d 5724 c0bd d2f1 6cbd 6d0e 28bd
00000320: dd5b bdbc 684c e4bc 88a2 cb3d 1101 233d
00000330: 302c c4bd f65b 8e3a 070d a7bd 704d 5dbd
00000340: 4108 3dbd 7a78 653d 9645 9cbd 5f6b 91ba
00000350: 394b bf3d a87a 163d 62f2 063d d485 ee3c
00000360: 2f51 95bd 5fc8 0b3d 17ea b0bd 411f 1a3c
00000370: 3cab 44bd b796 04bb c65e 0cbd 0068 553b
00000380: ff7b 55bb c0b8 a93d 9a3f 993d 16cd c73d
00000390: 402a c23c 281c 25bd 80b7 c63b 135f 2abd
000003a0: 3cf0 4f3c 7c09 8fbd 7def c9bd 30ca f6bb
000003b0: 8811 52bc 5d65 983b c332 833d ad3c f33c
000003c0: 552e b0bb e9c2 c03c de8b c2bd 57eb 873d
000003d0: 5351 30bd 9bb5 8c3b 20b4 823b e791 963d
000003e0: 030f 36bd 4785 3f3d da3d 7e3d ee26 d4bc
000003f0: a763 67bd 46b9 093d c0c0 663b 630e c23d

object_model.layers.2.bias f4 [4]
0.08022639 -0.07818965 -0.026956512 0.043522384
00000000: bc4d a43d e521 a0bd e7d3 dcbc 8744 323d
