run_scripts/new-snrl-v1_2023-01-12/models/model-0.pth (torch, 20119 bytes, 6 tensors)

p_head.0.weight f4 [64, 3]
-0.025515914 -0.0916202 -0.061815087 0.005847225 -0.060684305 0.1147332 -0.0012293096 0.081692815
-0.04510997 0.21013862 0.09101124 -0.12790774 0.1405372 0.009093065 -0.16259167 0.0074366345
0.065096356 -0.12272356 -0.025134163 0.007449389 0.26346076 0.029940085 -0.25093642 0.26400557
0.18202671 -0.17909746 0.1315951 -0.059333913 -0.38064766 0.0041335295 -0.12483389 -0.010218398
-0.00073093676 -0.048235185 0.120003834 0.089777626 0.015244502 0.057201244 0.04571626 0.0018783745
-0.07237095 0.052765597 -0.365293 0.057732176 0.13754898 0.047837283 0.0016623825 -0.030709028
-0.05319348 0.101313375 0.3539533 0.055113208 -0.13250424 0.11716671 0.13455619 -0.14023678
-0.25005898 0.08088515 -0.0080508245 0.08956766 -0.09738415 0.19451934 -0.17706054 -0.019024005
-0.2149541 -0.15819421 0.00069345464 0.035644554 0.06431299 0.110971846 -0.022284977 0.06577237
0.0314807 0.08516829 -0.06810452 -0.09681044 0.0794209 0.0075867907 0.15281692 -0.09512435
0.15401839 0.13900289 -0.060750466 0.094105154 -0.041812554 0.045247994 -0.011682 0.1042824
-0.09788857 0.06849383 0.13625555 0.06783687 0.10831431 -0.10895231 -0.28889057 -0.16202551
-0.13783552 -0.031543143 -0.004406723 -0.062278453 0.11007662 -0.049132194 0.22234173 0.13563542
0.12773402 0.042765267 -0.13109143 -0.09594261 -0.06275117 0.14458683 0.013365514 -0.11586698
0.008409099 -0.09203404 0.16264774 0.02531808 -0.16077052 -0.26910126 -0.030671222 0.02644064
-0.21570309 -0.13113463 0.040610388 -0.07656933 -0.11804571 0.027645614 -0.06520496 0.2074568
-0.004445868 -0.027938552 0.026334092 0.0015125754 -0.056564327 -0.058136202 -0.09348669 0.2270201
-0.03281493 0.10388021 -0.062061578 0.25928628 0.08080805 0.03327634 0.046186704 0.11241993
0.021442035 -0.04268122 -0.015043258 -0.24840103 -0.018526595 -0.07457947 -0.1758547 -0.03493247
0.011041398 0.23879007 0.1406465 -0.110560976 -0.021409387 0.0033712985 0.19032225 0.0526622
-0.016361525 -0.00022259259 -0.124356925 -0.08908233 0.38577104 0.027354093 -0.07509808 -0.021373952
0.14349255 -0.17948547 -0.032475278 0.121339716 0.048258886 0.16606691 0.16810392 -0.009716508
0.15680072 0.11075068 -0.2512558 -0.03536124 0.16076984 0.038342703 0.10360382 0.007418745
0.14863613 -0.048458487 0.104086116 0.24337238 0.051970128 -0.069992706 -0.07371501 0.034993064
00000000: c006 d1bc 5fa3 bbbd d131 7dbd 149a bf3b
00000010: 1b90 78bd 3df9 ea3d c920 a1ba 904e a73d
00000020: 3bc5 38bd 942e 573e 1a64 ba3d 3ffa 02be
00000030: fce8 0f3e 14fb 143c 6e7e 26be 03af f33b
00000040: 3d51 853d 7d56 fbbd 29e6 cdbc 011a f43b
00000050: 54e4 863e e944 f53c bd7a 80be bd2b 873e
00000060: 3665 3a3e 5365 37be dec0 063e 1e08 73bd
00000070: 40e4 c2be 8f72 873b e9a8 ffbd 116b 27bc
00000080: 569c 3fba 4292 45bd 92c4 f53d 55dd b73d
00000090: 13c4 793c da4b 6a3d f940 3b3d ca33 f63a
000000a0: 3837 94bd bd20 583d af07 bbbe 9378 6c3d
000000b0: a4d9 0c3e 07f1 433d 4de4 d93a 8091 fbbc
000000c0: 68e1 59bd 637d cf3d 5e39 b53e 63be 613d
000000d0: 31af 07be 1af5 ef3d 19c9 093e 3b9a 0fbe
000000e0: bb07 80be 1da7 a53d 9be7 03bc 406f b73d
000000f0: 5771 c7bd 1430 473e 5c4f 35be 3bd8 9bbc
00000100: ed1c 5cbe aafd 21be f4c8 353a 0600 123d
00000110: 87b6 833d 3545 e33d fc8e b6bc aab3 863d
00000120: e8f1 003d b66c ae3d 627a 8bbd 8d44 c6bd
00000130: 6da7 a23d 9d9a f83b 0a7c 1c3e 8ed0 c2bd
00000140: ffb6 1d3e c656 0e3e 7bd5 78bd 34ba c03d
00000150: a443 2bbd f655 393d dc65 3fbc 0392 d53d
00000160: cd79 c8bd 7e46 8c3d 9386 0b3e 0fee 8a3d
00000170: e5d3 dd3d 6422 dfbd 77e9 93be 04ea 25be
00000180: c124 0dbe 6233 01bd 4666 90bb b117 7fbd
00000190: da6f e13d d73e 49bd 8dad 633e 03e4 0a3e
000001a0: b5cc 023e a22a 2f3d d53c 06be 8f7d c4bd
000001b0: af83 80bd 920e 143e 07fb 5a3c ab4b edbd
000001c0: 51c6 093c 587c bcbd 218d 263e dd67 cf3c
000001d0: 07a1 24be a4c7 89be 3742 fbbc 0b9a d83c
000001e0: 45e1 5cbe 2848 06be 1457 263d 62d0 9cbd
000001f0: f3c1 f1bd 0e79 e23c 2e8a 85bd 8e6f 543e
00000200: a5ae 91bb 64df e4bc 98ba d73c 9c41 c63a
00000210: ffaf 67bd 3a20 6ebd f375 bfbd f577 683e
00000220: f368 06bd 26bf d43d 4834 7ebd 2cc1 843e
00000230: b17e a53d c64c 083d 452e 3d3d 6c3c e63d
00000240: 35a7 af3c 81d2 2ebd ff77 76bc d75c 7ebe
00000250: 16c5 97bc 1fbd 98bd 4113 34be 5a15 0fbd
00000260: fbe6 343c 6285 743e a305 103e cb6d e2bd
00000270: bd62 afbc 01f1 5c3b d6e3 423e 52b4 573d
00000280: 9b08 86bc be67 69b9 d8ae febd cc70 b6bd
00000290: c883 c53e b115 e03c 06cd 99bd 6d18 afbc
000002a0: b6ef 123e 0acb 37be cc04 05bd f580 f83d
000002b0: 1cab 453d 720d 2a3e 6f23 2c3e fd31 1fbc
000002c0: 5e90 203e 41d1 e23d 9aa4 80be f3d6 10bd
000002d0: d9a0 243e 3d0d 1d3d 3d2e d43d f218 f33b
000002e0: 1234 183e 687c 46bd 1a2b d53d 9c36 793e
000002f0: a1de 543d 5658 8fbd e5f7 96bd e354 0f3d

p_head.0.bias f4 [64]
0.0 0.0 0.0 0.0 0.0 0.0 0.0 0.0
0.0 0.0 0.0 0.0 0.0 0.0 0.0 0.0
0.0 0.0 0.0 0.0 0.0 0.0 0.0 0.0
0.0 0.0 0.0 0.0 0.0 0.0 0.0 0.0
0.0 0.0 0.0 0.0 0.0 0.0 0.0 0.0
0.0 0.0 0.0 0.0 0.0 0.0 0.0 0.0
0.0 0.0 0.0 0.0 0.0 0.0 0.0 0.0
0.0 0.0 0.0 0.0 0.0 0.0 0.0 0.0
00000000: 0000 0000 0000 0000 0000 0000 0000 0000
00000010: 0000 0000 0000 0000 0000 0000 0000 0000
00000020: 0000 0000 0000 0000 0000 0000 0000 0000
00000030: 0000 0000 0000 0000 0000 0000 0000 0000
00000040: 0000 0000 0000 0000 0000 0000 0000 0000
00000050: 0000 0000 0000 0000 0000 0000 0000 0000
00000060: 0000 0000 0000 0000 0000 0000 0000 0000
00000070: 0000 0000 0000 0000 0000 0000 0000 0000
00000080: 0000 0000 0000 0000 0000 0000 0000 0000
00000090: 0000 0000 0000 0000 0000 0000 0000 0000
000000a0: 0000 0000 0000 0000 0000 0000 0000 0000
000000b0: 0000 0000 0000 0000 0000 0000 0000 0000
000000c0: 0000 0000 0000 0000 0000 0000 0000 0000
000000d0: 0000 0000 0000 0000 0000 0000 0000 0000
000000e0: 0000 0000 0000 0000 0000 0000 0000 0000
000000f0: 0000 0000 0000 0000 0000 0000 0000 0000

p_head.2.weight f4 [64, 64]
-0.023459077 -0.020986013 -0.05049812 0.097762644 0.2181214 0.12097919 -0.011989236 0.043557882
-0.11499335 0.12753537 0.025109936 -0.109724745 -0.30071154 -0.00852767 0.259355 -0.06597963
0.018043749 -0.20834298 0.11085175 0.12533806 -0.07481467 0.21072163 0.06464588 0.08356698
0.13077603 0.152873 0.19277693 -0.06285608 -0.11935061 0.004719112 -0.10198777 -0.15776916
-0.030577736 0.02834565 -0.019384902 -0.06627275 -0.14983708 0.055300273 0.04499782 -0.24215189
0.050258253 0.09529372 -0.10786095 -0.105310544 -0.0075734938 0.12994795 0.19201769 0.003946829
-0.066611305 0.11990534 -0.01157583 0.097729914 -0.11998484 -0.16575631 -0.1261443 -0.017756166
0.028513484 -0.23325515 -0.044449806 0.22465365 -0.0979026 -0.12004401 -0.2349985 0.0027528612
0.08853324 -0.17752504 0.0408311 0.16757318 -0.06947922 0.07206781 -0.027815107 -0.048312444
0.023454268 -0.13870512 -0.20177391 -0.026583806 -0.1250061 0.07383821 0.041269157 -0.010361155
-0.18155506 0.03486465 -0.096280724 -0.07083225 -0.24062057 -0.10270261 -0.059362248 0.010142458
-0.042558115 0.17875403 0.043449197 0.15834695 0.056386888 -0.015157105 0.082320906 -0.06869443
0.03597517 0.032695033 -0.18906265 -0.057974096 0.17722192 0.072825864 -0.017613804 0.09634527
0.11086793 -0.108066365 0.2391568 -0.0034424048 -0.034726456 0.1117161 -0.030901179 -0.015834745
-0.30015695 0.08180448 -0.1421769 0.08023616 -0.010386001 0.10348403 -0.2511724 0.119870804
0.034181397 -0.1769897 -0.22452725 -0.24264595 -0.24102342 0.20323104 0.0075720865 -0.026716355
0.12577884 0.19460702 0.15397167 0.010567121 0.21919158 -0.0805836 0.05262627 -0.18457334
0.30715418 -0.071626335 0.021843465 -0.05459564 0.11192548 0.008113144 0.006219264 0.206857
-0.22151448 -0.055681683 -0.040968023 0.057437595 0.020804722 0.05133839 0.15783063 -0.041439634
-0.01413889 -0.030249296 0.07706569 0.047441583 0.0012165606 0.10182695 0.046351004 -0.079367325
-0.0190192 -0.3169174 -0.07386622 -0.047072597 0.2436349 -0.018296033 -0.1574067 0.07692117
-0.083037354 0.16668752 0.0018657297 0.014718113 -0.17007744 0.27184355 -0.1372256 -0.13641043
-0.075224146 -0.08337333 -0.034454472 0.15642768 -0.15057291 -0.006468084 0.09559356 0.08184401
-0.021870065 -0.021196317 0.22000378 0.13570148 0.07268648 0.014430242 -0.1836291 0.0012392213
-0.0068483534 -0.10993165 -0.024508743 -0.28953934 -0.11477237 -0.10984983 -0.006768523 -0.025777413
0.109300405 -0.0386307 -0.07435999 -0.3516867 0.06968042 0.05021566 -0.08572506 -0.0017695166
0.024550341 0.066955715 -0.13241838 0.13147835 0.002293324 -0.10948838 -0.07735275 0.0960891
0.21701822 -0.07996739 0.0027864333 -0.12180914 0.12903224 -0.039274216 0.18987392 -0.026696786
-0.09402309 -0.06174609 0.05683421 -0.28772807 -0.24359788 -0.02277746 0.055136826 -0.13636689
-0.017916756 -0.20562796 0.03766846 0.03592803 -0.02658218 0.29696596 -0.047653176 -0.07652113
-0.008458145 -0.15966508 0.046160884 0.065194316 -0.11509775 0.054683745 -0.037487864 -0.24104857
-0.06913452 -0.11479798 -0.059532646 0.0127163865 -0.12953816 -0.17157301 0.12439083 0.1270648
00000000: 402d c0bc dcea abbc 1ed7 4ebd c837 c83d
00000010: 375b 5f3e f0c3 f73d 806e 44bc c069 323d
00000020: a281 ebbd a298 023e 5ab3 cd3c 5eb7 e0bd
00000030: ddf6 99be a4b7 0bbc 2eca 843e 5420 87bd
00000040: 7cd0 933c dd57 55be 3e06 e33d 9f58 003e
00000050: 6f38 99bd 69c7 573e 0f65 843d 2a25 ab3d
00000060: 27ea 053e bd8a 1c3e 5167 453e b0ba 80bd
00000070: 186e f4bd c8a2 9a3b f7de d0bd 3d8e 21be
00000080: 297e fabc 2335 e83c 16cd 9ebc 02ba 87bd
00000090: e46e 19be 8a82 623d a24f 383d aaf6 77be
000000a0: 99db 4d3d 5b29 c33d 34e6 dcbd 0ead d7bd
000000b0: 122b f8bb 1311 053e 49a0 443e 6754 813b
000000c0: 826b 88bd ee90 f53d 8da8 3dbc 9f26 c83d
000000d0: 9dba f5bd 06bc 29be f92b 01be 6175 91bc
000000e0: 1c95 e93c 70da 6ebe 0011 36bd 9b0b 663e
000000f0: 2981 c8bd a2d9 f5bd 72a3 70be 5969 343b
00000100: ea50 b53d 20c9 35be 833e 273d 4e98 2b3e
00000110: 1f4b 8ebd 4a98 933d 82dc e3bc 45e3 45bd
00000120: 2a23 c03c b708 0ebe d29d 4ebe 48c6 d9bc
00000130: 9901 00be 7d38 973d d909 293d d5c1 29bc
00000140: 92e9 39be 3cce 0e3d d42e c5bd 8010 91bd
00000150: 3d65 76be bf55 d2bd d425 73bd 8d2c 263c
00000160: 6b51 2ebd 4c0b 373e c9f7 313d b425 223e
00000170: f0f5 663d 8255 78bc dd97 a83d aaaf 8cbd
00000180: b35a 133d 3aeb 053d a499 41be 3f76 6dbd
00000190: aa79 353e ba25 953d d34a 90bc ab50 c53d
000001a0: ba0e e33d e651 ddbd 85e5 743e f899 61bb
000001b0: 543d 0ebd 69cb e43d 7824 fdbc deb7 81bc
000001c0: 2cae 99be 1b89 a73d d296 11be db52 a43d
000001d0: 0c2a 2abc 6fef d33d ab99 80be d37e f53d
000001e0: cb01 0c3d ca3c 35be 79ea 65be 2e78 78be
000001f0: d8ce 76be cc1b 503e 441f f83b 42dc dabc
00000200: 2bcc 003e 1047 473e c0aa 1d3e b821 2d3c
00000210: c273 603e 0409 a5bd a58e 573d cb00 3dbe
00000220: 5043 9d3e d4b0 92bd 11f1 b23c ae9f 5fbd
00000230: 3039 e53d feec 043c f8ca cb3b 52d2 533e
00000240: b1d4 62be 7a12 64bd 16ce 27bd af43 6b3d
00000250: aa6e aa3c 3448 523d 5a9e 213e 9bbc 29bd
00000260: cea6 67bc 5fcd f7bc 9ed4 9d3d 1b52 423d
00000270: 0075 9f3a a68a d03d 8dda 3d3d 568b a2bd
00000280: 27ce 9bbc ff42 a2be 2c47 97bd 32cf 40bd
00000290: 6d7b 793e 90e1 95bc 392f 21be d988 9d3d
000002a0: 7d0f aabd 22b0 2a3e 808b f43a 3d24 713c
000002b0: c828 2ebe 142f 8b3e de84 0cbe 2daf 0bbe
000002c0: 1e0f 9abd a3bf aabd 2220 0dbd 942e 203e
000002d0: c92f 1abe 39f2 d3bb 8ec6 c33d d59d a73d
000002e0: da28 b3bc e6a3 adbc ac48 613e 54f5 0a3e
000002f0: a6dc 943d d26c 6c3c 4409 3cbe 5e6d a23a
00000300: 2768 e0bb d823 e1bd 8fc6 c8bc 803e 94be
00000310: c70d ebbd f3f8 e0bd 7cca ddbb 272b d3bc
00000320: e4d8 df3d 3a3b 1ebd 0d4a 98bd 4710 b4be
00000330: 9cb4 8e3d f0ae 4d3d 9f90 afbd 20ef e7ba
00000340: cc1d c93c 1420 893d af98 07be 43a2 063e
00000350: 984b 163b 723b e0bd 1e6b 9ebd 5dca c43d
00000360: 063a 5e3e f1c5 a3bd 989c 363b 1277 f9bd
00000370: 0721 043e 00de 20bd 4f6e 423e 38b3 dabc
00000380: 2e8f c0bd 78e9 7cbd fdca 683d 1851 93be
00000390: b971 79be cc97 babc 27d7 613d c3a3 0bbe
000003a0: 29c6 92bc 2390 52be 3e4a 1a3d 4529 133d
000003b0: dfc2 d9bc ec0b 983e fa2f 43bd 1cb7 9cbd
000003c0: 0894 0abc 3e7f 23be 3213 3d3d 9984 853d
000003d0: 5fb8 ebbd 10fc 5f3d e08c 19bd 70d5 76be
000003e0: 6696 8dbd 341b ebbd 81d8 73bd 6458 503c
000003f0: a7a5 04be d6b0 2fbe 9fc0 fe3d 461d 023e

p_head.2.bias f4 [64]
0.0 0.0 0.0 0.0 0.0 0.0 0.0 0.0
0.0 0.0 0.0 0.0 0.0 0.0 0.0 0.0
0.0 0.0 0.0 0.0 0.0 0.0 0.0 0.0
0.0 0.0 0.0 0.0 0.0 0.0 0.0 0.0
0.0 0.0 0.0 0.0 0.0 0.0 0.0 0.0
0.0 0.0 0.0 0.0 0.0 0.0 0.0 0.0
0.0 0.0 0.0 0.0 0.0 0.0 0.0 0.0
0.0 0.0 0.0 0.0 0.0 0.0 0.0 0.0
00000000: 0000 0000 0000 0000 0000 0000 0000 0000
00000010: 0000 0000 0000 0000 0000 0000 0000 0000
00000020: 0000 0000 0000 0000 0000 0000 0000 0000
00000030: 0000 0000 0000 0000 0000 0000 0000 0000
00000040: 0000 0000 0000 0000 0000 0000 0000 0000
00000050: 0000 0000 0000 0000 0000 0000 0000 0000
00000060: 0000 0000 0000 0000 0000 0000 0000 0000
00000070: 0000 0000 0000 0000 0000 0000 0000 0000
00000080: 0000 0000 0000 0000 0000 0000 0000 0000
00000090: 0000 0000 0000 0000 0000 0000 0000 0000
000000a0: 0000 0000 0000 0000 0000 0000 0000 0000
000000b0: 0000 0000 0000 0000 0000 0000 0000 0000
000000c0: 0000 0000 0000 0000 0000 0000 0000 0000
000000d0: 0000 0000 0000 0000 0000 0000 0000 0000
000000e0: 0000 0000 0000 0000 0000 0000 0000 0000
000000f0: 0000 0000 0000 0000 0000 0000 0000 0000

p_head.4.weight f4 [2, 64]
-0.0019423639 -0.00078074995 -0.00079347036 -0.0011409704 0.00019312352 -0.00032453798 -4.1385363e-05 -0.0013797914
-0.00073342223 -0.0015046325 -0.0011254865 0.0023455652 -0.002550736 -0.00015594272 -0.0004949413 -0.0011573407
-0.001182698 -0.00061755884 0.0003945176 -0.00040551162 -0.00020371166 -0.002188681 0.00023467738 -0.00078390475
0.0025662226 -0.0017771231 -0.0015572706 0.0013639535 0.001146124 -0.00054140564 -0.0020996442 -0.0012319583
-0.001316388 0.0020834198 -0.00046593783 -0.0010894215 0.0019882522 0.0004292807 0.00015476403 -0.0018058709
-0.00031418115 0.0017516805 0.001151135 0.00024404065 -0.0013454419 0.001812075 -0.0013441908 0.0004377078
0.00053895876 0.00032480166 -0.0005057742 -0.00029409563 -0.00129749 2.6205216e-05 -0.0001615466 -0.0019154922
-0.001261975 0.0006464721 -0.00091192295 -0.0008117262 -0.0011907407 -0.0008423061 -0.00013651613 0.002545684
7.322674e-06 0.0012497813 -0.001124381 -0.00066251855 0.0017647488 0.0011949302 -0.00095805223 -0.0014533775
0.00055557245 0.0016347703 0.0008938556 0.00086354685 -0.00119147 0.0009516427 0.000119475146 0.0018476918
-0.00066978985 0.0011685229 -0.0034884422 0.0013636599 -1.2135653e-05 0.0008271088 -0.00038716878 0.00032235688
0.001028695 -0.00014566346 -0.00015642351 -0.0024029426 -0.00044990153 0.0016187229 -0.00018916321 -0.0016858968
-0.0008913803 0.00021765084 -0.001645387 0.000401826 0.0005788989 0.0012390707 0.0015623689 -0.0010166763
-0.002880015 -0.000689554 -0.0014104003 -0.0011333287 0.00069651456 0.00081158895 2.2104587e-05 0.0023314555
-0.00014379711 0.002132313 0.0007068393 0.00065341516 0.0008756121 -0.0006137798 -0.0020415052 -0.00012054293
0.00083451334 -0.0016781251 0.0015017646 0.0006888426 -6.442442e-05 -0.0021548334 0.00022150755 -0.00029257612
00000000: eb96 feba 3eab 4cba e500 50ba 9d8c 95ba
00000010: 3381 4a39 c026 aab9 3295 2db8 1eda b4ba
00000020: 2243 40ba 1737 c5ba 0f85 93ba 0eb8 193b
00000030: 402a 27bb 8e84 23b9 f3be 01ba e9b1 97ba
00000040: c204 9bba ace3 21ba 42d7 ce39 d99a d4b9
00000050: 6f9b 55b9 f96f 0fbb bb13 7639 f57e 4dba
00000060: 122e 283b 5bee e8ba 551d ccba afc6 b23a
00000070: 8a39 963a 1eed 0dba 2f9a 09bb a979 a1ba
00000080: a78a acba fc89 083b 1e49 f4b9 ebca 8eba
00000090: 564d 023b 1511 e139 2748 2239 f9b2 ecba
000000a0: aeb8 a4b9 a598 e53a aee1 963a 2ae5 7f39
000000b0: 8a59 b0ba 2683 ed3a 8f2f b0ba 257c e539
000000c0: e948 0d3a 244a aa39 ef95 04ba d930 9ab9
000000d0: 8a10 aaba 46d3 db37 d664 29b9 4111 fbba
000000e0: db68 a5ba 0278 293a 1d0e 6fba 06ca 54ba
000000f0: a112 9cba 35ce 5cba c525 0fb9 7ed5 263b
00000100: 4ab5 f536 b4cf a33a f75f 93ba deac 2dba
00000110: 254f e73a 349f 9c3a cc25 7bba 427f beba
00000120: d6a3 113a ca45 d63a a251 6a3a a65f 623a
00000130: 192b 9cba a977 793a bb8e fa38 402e f23a
00000140: d694 2fba 1f29 993a 599e 64bb d5bc b23a
00000150: 3c9a 4bb7 55d2 583a eafc cab9 0202 a939
00000160: 47d5 863a 3dbd 18b9 9e05 24b9 b07a 1dbb
00000170: c3e0 ebb9 542b d43a 1d5a 46b9 4ff9 dcba
00000180: 85ab 69ba 3439 6439 07aa d7ba 2cac d239
00000190: 3fc1 173a 5068 a23a 67c8 cc3a ff41 85ba
000001a0: a2be 3cbb 30c3 34ba 2edd b8ba 338c 94ba
000001b0: 4d96 363a d0c0 543a 3d6d b937 55cb 183b
000001c0: 3ec8 16b9 47be 0b3b 2f4b 393a f349 2b3a
000001d0: 5589 653a 11e6 20ba c6ca 05bb fecb fcb8
000001e0: 3ec3 5a3a 89f4 dbba dcd6 c43a 7293 343a
000001f0: 991b 87b8 1b38 0dbb 7b44 6839 e764 99b9

p_head.4.bias f4 [2]
0.0 0.0
00000000: 0000 0000 0000 0000
