models/model-0.pth (torch, 21655 bytes, 6 tensors)

p_head.0.weight f4 [64, 8]
00000000: 8060 b53c a378 103e ac9b 133e 5ea6 97bd
00000010: a486 3c3e d669 c43c 2f6a 32bd 98de c23d
00000020: 96c6 c8bd 00ef d73e c2f7 2f3d 75b6 0dbd
00000030: 1ac8 84bd a014 aabc 13df d1bc 2357 4ebd
00000040: 7cc6 87bd 9494 bc3d 2e61 0abe 2326 76be
00000050: 3723 843d f2b5 dbba 3700 66bc 730d 21be
00000060: e4d3 033e 4762 f23c dbba 3dbe f8b7 3d3e
00000070: 7be2 28be befe e9bd b399 08bd 7168 b0be
00000080: 4d15 933d f45d a43c 557b 8bbd 5037 0d3e
00000090: 7c3a 913c 593b 6b3e d8cd 443d 2d5e e13c
000000a0: 4fe8 50bd e906 4ebd 2578 c6bc c17e 01bd
000000b0: 33ff af3d fbdc 8b3c ab02 2c3d a5a9 273e
000000c0: 968f 373e c08d 943c 962f 85be 091a d1bd
000000d0: 2d35 e8bd 0b2d 8b3e 844a 99bd 45d8 323e
000000e0: 9a82 b73d 8587 c5bc 5fdf 81be fc43 323e
000000f0: 6b78 8abd 34e9 1fbd ef73 9fbd 5ec8 bf3d
00000100: 615b b339 cf99 493d 3fc6 413e d16c 513e
00000110: 9362 24be d074 393e 9ff1 803e afed f7bd
00000120: e200 1c3d b8f7 afbd 8db9 67bc 6c9d 03bd
00000130: 45fe 6d3d 8c20 783c faae cd3b fb0b b1bd
00000140: 1a01 40bc 4750 1c3e 64d5 d53d da18 783d
00000150: 3f91 f9bc b91a 8b3d 9ed4 21be 5af1 8fbc
00000160: ec91 05be f327 313b 0d8a 9dbc 78cf 803e
00000170: 1252 12bd 4c7a b03c ea47 d13d 4558 133e
00000180: 1c06 333d 1c7b 82bd c8a5 8ebd 73b6 fbbc
00000190: 82ce 283e 4cfd ed3d 4df6 9f3d 24d8 4ebe
000001a0: 5d5c 493d 0419 dfbc 26ed 96be e461 bb3d
000001b0: 37a8 623e 2141 abbd 8558 783c 3635 983c
000001c0: a215 fdbc 8fc5 0b3d 5604 42bb 3f0b 34be
000001d0: 57d4 8ebe e092 7b3d 9418 4bbd 4e2e 883c
000001e0: 6936 443e 4ae0 80bd 560c ca3c 0784 d23c
000001f0: 141f 6b3e 676c f9bc 5e2c c83d 680b c83d
00000200: 7681 123d 69b9 643d 9310 4f3d 6e25 1f3c
00000210: 91cb 0c3d c35f 63bd 15a3 233e f11a 043d
00000220: c38c 393e 1065 b1bd 25c2 643c 1492 bebd
00000230: 918d e03d 1d9c 0e3e 4ac3 f33d dc9b 06be
00000240: 0ab6 263d 1b5e b1bd 0fac 8dbb 2c3e 29bc
00000250: a342 84bd d90b 10bc 6a1f 123e 8159 6abe
00000260: 4c9c 6a3c 3f84 263e 35dd 60bd 4ba9 d9bd
00000270: 3aff 7e3d 4b25 0bbe 60fc 9f3d e5db 853d
00000280: 633b 393e cc1e 3abd 9b1c db3d 85f6 f73c
00000290: ad7c ba3d 5e36 873d bd6a 733e 2125 c83d
000002a0: 4ad2 eabd 1c0c b83d b13b f4bd 2d4f b3bc
000002b0: ddf2 9cbd a630 de3c a6df 5b3d fbd7 b13c
000002c0: fa59 14be 1bc2 843d c28b 89bc aca1 e1bd
000002d0: cfe3 973d 4080 453e 5b01 653e 6667 0b3e
000002e0: fac0 613e d69b 383e 08a3 4a3e 9d39 cdbd
000002f0: cbfe e7bc 2eef 1e3e 7067 023c 4d30 153e
00000300: 392e 633e 20b3 263d 00e2 163e 27a2 d83c
00000310: b161 d8bc d5cd 26be d240 85ba 2071 673c
00000320: fc20 0bbe a4f5 663d 1a36 113e c923 6fbe
00000330: 6866 2d3e 1543 1cbe b3cc 413d 85db b8bd
00000340: d800 00be a032 46be 73ae 7dbd 28e6 8cbc
00000350: 2def 593e 8155 4fbd 5d40 12bd 8b26 20be
00000360: 017a 9cbd 7b71 2dbe 0c71 063d 1432 29be
00000370: fba1 fe3b 494d a3bd ec56 543e 608b 2b3e
00000380: f489 bb3d b9c7 813e 8daa 1c3d 39e2 59be
00000390: d75b 42be 0447 29be 7431 96bd 9b07 a53d
000003a0: 7997 37bd 8800 1dbe d451 263a 514f 94bc
000003b0: 59bd a0bd c792 75bd 698b 32be 6d93 6c3d
000003c0: a302 2bbe 6c49 6e3e 4452 9abd c973 2f3e
000003d0: 9c1a f23c 2d71 c13d e76f a83d 7e7c ee3d
000003e0: e1d2 2d3e ed42 6d3d 69e3 573e b9fd 5f3e
000003f0: d3ab 833e e613 0abe b396 cbbc 72d3 203e
0.022140741 0.1410852 0.14414853 -0.07404779 0.18410736 0.023976248 -0.043558296 0.09515113
-0.09803502 0.4217453 0.04296089 -0.034597833 -0.06483479 -0.020761788 -0.025619065 -0.05037607
-0.06629655 0.092080265 -0.13513634 -0.24037986 0.06452029 -0.0016762598 -0.014038137 -0.15727787
0.12873799 0.029587878 -0.18528311 0.1852721 -0.16492645 -0.11425541 -0.033349704 -0.34454682
0.07181797 0.020064332 -0.06810633 0.13790631 0.017728083 0.22971858 0.04804787 0.027510727
-0.051002797 -0.05029956 -0.024227211 -0.031615023 0.08593597 0.017073145 0.041994732 0.16373308
0.17925867 0.018133998 -0.26012868 -0.10210044 -0.113382675 0.27182803 -0.07484916 0.17465313
0.08960457 -0.024112472 -0.2536573 0.17408746 -0.06761249 -0.03904076 -0.077857845 0.09364389
0.00034209623 0.04921895 0.18923281 0.20451666 -0.16053228 0.18110967 0.25184342 -0.121058814
0.03808678 -0.085921705 -0.01414336 -0.03213255 0.05810382 0.0151444785 0.0062769623 -0.08644863
-0.011719013 0.15264998 0.10441092 0.060570575 -0.030464767 0.06792206 -0.15803763 -0.01757114
-0.13043946 0.0027031868 -0.019230867 0.25158286 -0.0357228 0.02154269 0.10218795 0.14389141
0.043707 -0.063711375 -0.06965214 -0.030726647 0.16485026 0.11620578 0.0781065 -0.20199639
0.04916035 -0.027233608 -0.29477805 0.091495305 0.22134481 -0.08362032 0.015157823 0.01858006
-0.030894104 0.034123953 -0.0029604635 -0.17582415 -0.27896377 0.061419368 -0.049583986 0.016623642
0.19161381 -0.0629278 0.024664085 0.025697721 0.22961074 -0.030447198 0.09774087 0.097678006
0.035767995 0.055840883 0.050552916 0.009713514 0.034373824 -0.055511247 0.1598018 0.032252256
0.18120103 -0.08661854 0.013962303 -0.09305206 0.10964502 0.1392674 0.11902483 -0.13145393
0.04070095 -0.08660527 -0.0043234895 -0.010329764 -0.064580224 -0.008791887 0.14269796 -0.22885706
0.014319491 0.16261385 -0.05489846 -0.10627993 0.06225512 -0.13588445 0.078118086 0.06536082
0.1808906 -0.045439526 0.106988154 0.030268917 0.09105811 0.066021666 0.23771186 0.09772707
-0.11465891 0.08986685 -0.11925448 -0.02188834 -0.0766351 0.027122807 0.053680085 0.021709433
-0.14487448 0.06482335 -0.016790275 -0.110171646 0.07416498 0.19287205 0.22363798 0.13613662
0.22046271 0.18028197 0.19788754 -0.100207545 -0.028319737 0.15520927 0.007959232 0.14569207
0.22185601 0.04069817 0.1473465 0.026444508 -0.02641377 -0.16289456 -0.0010166413 0.014126092
-0.13586801 0.056386605 0.14180794 -0.23353495 0.16933596 -0.15259965 0.047314357 -0.09026245
-0.12500322 -0.1935525 -0.061933946 -0.01719959 0.21282645 -0.050618652 -0.035705913 -0.15639703
-0.07640458 -0.1693782 0.032822654 -0.1652301 0.0077707744 -0.07973725 0.20736283 0.16752386
0.09157172 0.2534769 0.038248587 -0.21277703 -0.18980347 -0.16530997 -0.07333651 0.08058091
-0.04482219 -0.15332234 0.0006344591 -0.018104227 -0.07848615 -0.05995443 -0.17435993 0.057757784
-0.16700225 0.23270196 -0.07535222 0.17134012 0.029553704 0.09445415 0.08224469 0.11644839
0.16974975 0.057925154 0.21082844 0.21874131 0.2571703 -0.13484153 -0.024852132 0.1570566

p_head.0.bias f4 [64]
00000000: 0000 0000 0000 0000 0000 0000 0000 0000
00000010: 0000 0000 0000 0000 0000 0000 0000 0000
00000020: 0000 0000 0000 0000 0000 0000 0000 0000
00000030: 0000 0000 0000 0000 0000 0000 0000 0000
00000040: 0000 0000 0000 0000 0000 0000 0000 0000
00000050: 0000 0000 0000 0000 0000 0000 0000 0000
00000060: 0000 0000 0000 0000 0000 0000 0000 0000
00000070: 0000 0000 0000 0000 0000 0000 0000 0000
00000080: 0000 0000 0000 0000 0000 0000 0000 0000
00000090: 0000 0000 0000 0000 0000 0000 0000 0000
000000a0: 0000 0000 0000 0000 0000 0000 0000 0000
000000b0: 0000 0000 0000 0000 0000 0000 0000 0000
000000c0: 0000 0000 0000 0000 0000 0000 0000 0000
000000d0: 0000 0000 0000 0000 0000 0000 0000 0000
000000e0: 0000 0000 0000 0000 0000 0000 0000 0000
000000f0: 0000 0000 0000 0000 0000 0000 0000 0000
0.0 0.0 0.0 0.0 0.0 0.0 0.0 0.0
0.0 0.0 0.0 0.0 0.0 0.0 0.0 0.0
0.0 0.0 0.0 0.0 0.0 0.0 0.0 0.0
0.0 0.0 0.0 0.0 0.0 0.0 0.0 0.0
0.0 0.0 0.0 0.0 0.0 0.0 0.0 0.0
0.0 0.0 0.0 0.0 0.0 0.0 0.0 0.0
0.0 0.0 0.0 0.0 0.0 0.0 0.0 0.0
0.0 0.0 0.0 0.0 0.0 0.0 0.0 0.0

p_head.2.weight f4 [64, 64]
00000000: 4071 2dbd 60cb 9c3c 0d0a 81bb ab23 593e
00000010: 4b0d 0ebe c83f d0bc 7bea 0a3d 0c13 2bbc
00000020: 349f 25be 0ae0 85be bf1b 5ebc 384c 86bd
00000030: 52b8 c93c 4f22 3bbd 7de9 103d 3b38 89bb
00000040: abe7 8f3d 147c 52be c725 a93d fe70 e6bd
00000050: 3ae4 6c3e cb5f 6a3d 2e5b 08bd ef13 6dba
00000060: b0ed 6e3e 8ab1 8e3d 220d 923c a17f dbbc
00000070: 4bd0 6ebe 5aca b93d 2adb 3abe a3dd cc3d
00000080: cccb 683d 2d21 69be 5504 1dbe 1dcc d2bc
00000090: 197d 1b3e 3e8b f5bd 194b ba3b 36d4 c53d
000000a0: 0ec2 88bd 72da 0f3e 0e9e a9bc 69ef 083d
000000b0: ebaf 85bd 651b 5d3d 1ed6 47be 1c11 993d
000000c0: bdf5 613e 910e 333e 4dbf 32be a413 9c3d
000000d0: ccbd 84be 83d5 39bd b2e7 3ebe 5b6d 6dbd
000000e0: 48d5 12bb b20f 83be 132a 033d 22d1 aa3d
000000f0: 4ccc 2d3d 6d33 28be edb2 c7bd 7a04 c03c
00000100: e938 1ebd 800a 0e3c bc29 c53d 9f17 a1bd
00000110: 8d9f e5bc dceb 0e3c 4b22 b8be 25c4 68bd
00000120: 93fc 053d 18f6 193e 9402 a9bd d51f f13d
00000130: 8094 993d 69ba 243d e198 6e3d 0ab5 9f3e
00000140: 30fb a33d de54 08bb 4e31 983c 1fb9 633e
00000150: f99d f43c 4c7c 1cbe e88e 40be d36d 2abd
00000160: 0b2c 183d bfe6 be3d ef05 183d 743a b73d
00000170: c43d 833d 160f ac3c b2bc ecbd fdb2 89bd
00000180: 3383 683e 7820 2abe d866 043e bd18 113e
00000190: 62a6 de3d d4b1 97bc 6adf 2ebd 7328 c3bd
000001a0: b012 013e 8625 a3bd 4089 8ebe 10f1 25bc
000001b0: 7db1 63bd 4d08 cd3d 3f44 fc3d 9451 373e
000001c0: 86cd 03be da3e 05be 721b 24be dfa9 bdbd
000001d0: b005 c7bd 936c 42bd 9272 1ebe 2389 1bbe
000001e0: 7e8b 44bc d4e8 51be e258 2fbd 11ad bf3d
000001f0: 736d 97bd ba9f 0d3e c6e3 113e edc6 f6bd
00000200: 6dc2 a53b 87dd 813d 9062 e2bd fa48 e03c
00000210: b2b9 b73d f893 29be f887 883d e77a 30be
00000220: 0aab 5c3d 9d02 1c3e a4e7 153b ce39 04be
00000230: 82ac 973e d40b aabd fd4e f53d b052 113d
00000240: 75e7 b4bd 0261 2ebe 7182 46be be23 11be
00000250: 204c 503d addc 8c3d 32c7 5dbe ea8d 51bd
00000260: 794d 7e3e f249 2f3e 7a63 1abe 6188 16be
00000270: c388 73bd fa6a de3d c11e 5fbd 2cc4 443d
00000280: 819d cbbd cb04 babd 98a7 693c c2e6 023c
00000290: aded f8bd e10d a9bd 85c3 cb3d a945 adbc
000002a0: bc57 1b3d 6649 babb 62fc d9bc 97dc 2abe
000002b0: 8d88 8b3d 18b5 383e 15bb 913e 16a9 d43b
000002c0: b276 7fbd be28 773d b714 c93d 603b 0a3e
000002d0: d439 723e 1ffe 623d 95af 863e 85e0 36be
000002e0: 69f2 abbb ea49 efbd 481e f5bd 25f9 52bd
000002f0: c631 b1bd 092c 84bc 2a30 49bd 34fc 093e
00000300: 886f 0dbe c9dd 4c3e d051 133e 882c 17be
00000310: 589a 003e 78b2 81bd 1857 97bc f5b7 1a3e
00000320: 6267 3bbe 4272 61bc 9eb8 2a3d 42ba 2a3e
00000330: 732e bf3c 5828 9fbd 2484 59bc 4ec0 03bd
00000340: 03fd 0fbe 23f6 28bd dcc7 d2bd 0be1 193e
00000350: 0a74 ba3d 0068 da3b 071e 39be 72e3 88bc
00000360: 129d 093e 1e0e 6fbd e0c1 a3bd 44a1 abbd
00000370: e51c 22bd e2ae e4bb 1bd1 433e 2c9f f8ba
00000380: dd0f 493e de2f 98bd 0c21 873d 4468 d6bb
00000390: 905d 5f3e 1076 70be 9db7 9d3e cf60 2d3e
000003a0: 5a6d 5cbe 6246 6cbe 21fb 083d 608d 8bbd
000003b0: 8e01 773e ede3 04be 4a1c d5bd cae0 f8bd
000003c0: 7fc4 09be 374a 2abd b382 d33d 7e77 1abe
000003d0: 705d bd3d 09b5 05bd 8e37 0fbe 69f4 d13d
000003e0: 6b3a d9bc 3e99 853d 1c7c 82bb 6c77 963d
000003f0: 2af4 bf3d 7fb8 8bbd 913a cabd 44a3 b93d
-0.04234433 0.019139946 -0.0039379657 0.21205013 -0.13872258 -0.025421038 0.033915024 -0.010441553
-0.16174012 -0.2614749 -0.01355642 -0.06557506 0.024624024 -0.045687016 0.03537892 -0.0041876114
0.07026609 -0.20555145 0.082591586 -0.1125202 0.23133937 0.05722026 -0.03329008 -0.0009043803
0.23332858 0.06967457 0.017828528 -0.026794257 -0.23321645 0.090717986 -0.18247667 0.10003211
0.05683498 -0.22766562 -0.15333684 -0.025732094 0.1518444 -0.11989449 0.005685222 0.09659617
-0.06677638 0.14048174 -0.02070525 0.033431444 -0.06527694 0.053981204 -0.19515273 0.074739665
0.22066398 0.17486025 -0.17455788 0.07620934 -0.25926054 -0.045369636 -0.18643072 -0.057965618
-0.0022404958 -0.25597912 0.032022547 0.0834067 0.04243116 -0.16425867 -0.09750924 0.023439635
-0.038628493 0.008669496 0.09627101 -0.078658335 -0.028030181 0.008723225 -0.35963663 -0.056827683
0.032711577 0.15035284 -0.08252445 0.117736496 0.07499027 0.040216837 0.058251265 0.3119281
0.080068946 -0.0020802538 0.018578198 0.22238587 0.029860483 -0.1528179 -0.18804514 -0.041608643
0.037151378 0.09321355 0.037115034 0.08946696 0.06408265 0.021003287 -0.11559428 -0.067235924
0.22706299 -0.16613948 0.12929857 0.14169593 0.10871579 -0.018517412 -0.042693533 -0.095291995
0.12604785 -0.079661414 -0.27839088 -0.010128275 -0.055589188 0.10011349 0.123177044 0.17902213
-0.1287137 -0.13012257 -0.16026095 -0.09260916 -0.09717882 -0.047466826 -0.15473393 -0.15189032
-0.011996148 -0.20498973 -0.042809375 0.09359182 -0.07393923 0.13830462 0.14247045 -0.12049661
0.0050585777 0.06341081 -0.110539556 0.027378548 0.089709654 -0.16560352 0.06666559 -0.17234384
0.053874053 0.15235372 0.0022873664 -0.12912676 0.296238 -0.08303037 0.119779564 0.035479248
-0.088332094 -0.17029193 -0.19385697 -0.14173791 0.05085385 0.06878028 -0.21658018 -0.05116073
0.24834241 0.17118052 -0.1507701 -0.14700462 -0.059456598 0.10860248 -0.05447269 0.048038647
-0.09942151 -0.090829454 0.014261149 0.007989587 -0.12154708 -0.082546 0.09949402 -0.02115138
0.037925467 -0.0056850193 -0.026609603 -0.16685711 0.06813154 0.18037832 0.28463045 0.006489883
-0.062369056 0.06034159 0.09818404 0.13499212 0.23654872 0.05541813 0.26305833 -0.17859085
-0.0052474034 -0.1168402 -0.11968666 -0.051507134 -0.08652072 -0.016134279 -0.0491182 0.13475114
-0.13812077 0.2000648 0.14386678 -0.14763081 0.12558877 -0.06332868 -0.018474147 0.15109237
-0.18301156 -0.013760151 0.04167997 0.16672614 0.023337578 -0.07771367 -0.013276134 -0.032165818
-0.1406136 -0.04125036 -0.102920264 0.15027253 0.09104164 0.00666523 -0.18077861 -0.016710017
0.13438824 -0.058363073 -0.07995963 -0.08380368 -0.039578337 -0.0069788555 0.19122736 -0.0018968335
0.19634958 -0.07431005 0.065981 -0.006543191 0.21813035 -0.23482537 0.30804148 0.16931461
-0.2152609 -0.23073724 0.03344262 -0.068140745 0.24121687 -0.12977572 -0.10405786 -0.1215225
-0.13453864 -0.041574683 0.10327663 -0.15084645 0.092463374 -0.03264335 -0.13986036 0.10251696
-0.026517114 0.06523369 -0.00398208 0.07346997 0.093727425 -0.06822299 -0.09874452 0.090643436

p_head.2.bias f4 [64]
00000000: 0000 0000 0000 0000 0000 0000 0000 0000
00000010: 0000 0000 0000 0000 0000 0000 0000 0000
00000020: 0000 0000 0000 0000 0000 0000 0000 0000
00000030: 0000 0000 0000 0000 0000 0000 0000 0000
00000040: 0000 0000 0000 0000 0000 0000 0000 0000
00000050: 0000 0000 0000 0000 0000 0000 0000 0000
00000060: 0000 0000 0000 0000 0000 0000 0000 0000
00000070: 0000 0000 0000 0000 0000 0000 0000 0000
00000080: 0000 0000 0000 0000 0000 0000 0000 0000
00000090: 0000 0000 0000 0000 0000 0000 0000 0000
000000a0: 0000 0000 0000 0000 0000 0000 0000 0000
000000b0: 0000 0000 0000 0000 0000 0000 0000 0000
000000c0: 0000 0000 0000 0000 0000 0000 0000 0000
000000d0: 0000 0000 0000 0000 0000 0000 0000 0000
000000e0: 0000 0000 0000 0000 0000 0000 0000 0000
000000f0: 0000 0000 0000 0000 0000 0000 0000 0000
0.0 0.0 0.0 0.0 0.0 0.0 0.0 0.0
0.0 0.0 0.0 0.0 0.0 0.0 0.0 0.0
0.0 0.0 0.0 0.0 0.0 0.0 0.0 0.0
0.0 0.0 0.0 0.0 0.0 0.0 0.0 0.0
0.0 0.0 0.0 0.0 0.0 0.0 0.0 0.0
0.0 0.0 0.0 0.0 0.0 0.0 0.0 0.0
0.0 0.0 0.0 0.0 0.0 0.0 0.0 0.0
0.0 0.0 0.0 0.0 0.0 0.0 0.0 0.0

p_head.4.weight f4 [3, 64]
00000000: e104 9eba a630 b73a fae7 983a 767c 843a
00000010: a191 2cb9 ae1e 22ba 92e4 893a e243 723a
00000020: 7336 383b f4f8 2f3b 599f bbb9 67dd 023b
00000030: 3278 ee3a 168a 00bb 4fb9 693a 0e94 bab8
00000040: e4eb d8ba 9bdf 093b 3ca4 973a 38f6 95b9
00000050: d7c9 a6ba da4c 113a 76bb a0ba ae9f a23a
00000060: 53ab eeba 6799 983a 2173 bcba df3e 203a
00000070: 6774 823a 29b1 8c37 6b41 62b9 27bf 92ba
00000080: 05cc f039 fded ab3a ef82 93ba f69d aeba
00000090: 1974 6dba a7e8 8239 8876 22ba c6b6 0d3b
000000a0: e64a 44bb f9f4 623a 4fcf b138 d4fe cfb9
000000b0: c79d 183a 8082 e839 2450 3839 49f6 a438
000000c0: 39da 22b9 ebad 423a 6421 8db9 ddd1 1dba
000000d0: 1680 1c3b 0292 0239 0c84 7f3a 530b 7e3a
000000e0: 12d5 1d3a 80fc f6ba f8c9 89b6 07f2 89ba
000000f0: 9903 e3ba 32c8 34ba 020a eaba 18cf 1439
00000100: b43c 7cba 69dc b7ba bc4f 9c3a 54fe 4c3a
00000110: 64b3 633a d910 dcb9 727b 863a 59e3 24ba
00000120: b0b4 db39 8178 31bb 7ef2 db3a 9579 edb9
00000130: ab2a ddb9 6368 0e3a c78d 01ba 34fb a4b9
00000140: 3d93 10ba 8def a03a 5cbe b4ba aacb c339
00000150: 9dcc 34bb cd71 ccba d333 4bba 29d3 6d3a
00000160: 649c c6ba 60fc bc3a 3730 f039 8055 5c3a
00000170: 9206 6139 8d5b 99ba 5834 273b b068 28b8
00000180: 55a4 e039 62db f1ba b96a 74ba f573 d0b9
00000190: 6007 1739 1495 4e39 e0fa 263a d43e 343a
000001a0: f06f 8a38 705b 373a bd74 81ba a6de c73a
000001b0: 1f33 1db9 b48c 2e39 f28d ca39 0ec9 9639
000001c0: 10a4 b13a e526 9eba d88f b63a bc68 56ba
000001d0: fb80 a2b9 12b7 ef3a 7591 853a 2297 0e3a
000001e0: c48b b03a ede2 2eb9 852d 7037 2f3f ad3b
000001f0: 10ce b6ba d385 d038 d8b6 b739 72f1 4fba
00000200: ce34 beba bdd2 7eb8 a521 db39 2dc2 ab3a
00000210: 67a5 823a 9508 0238 30ab d339 61d8 183b
00000220: 4b43 e53a f026 27bb a4a4 0b3b 14a2 5539
00000230: a269 cd3a 0fe5 133b 227b 37bb c25d a6ba
00000240: ae23 0b3a 50e1 19b9 187c 513a 39bb ab3a
00000250: 8a35 4d3a 2727 f438 8257 8f3a 2450 5f3a
00000260: b491 643a 9b51 beb9 629f afba e030 bfba
00000270: 542e 743a 135e 5c3a af38 79ba 09cb 22b9
00000280: 94ba bc3a a660 103a 9ce3 1aba 6bd5 fa39
00000290: 636f 103b 4daf 163a 2973 e03a 794d 8537
000002a0: d70e adb9 278a 15bb a2b8 d638 11f7 15ba
000002b0: b866 323a f5dc cab9 757d 193a a2f4 cd3a
000002c0: 2540 ab39 67ce ffb9 509f 0fbb 0638 ee38
000002d0: 2a2f 473a fd34 2aba 5dbf 9e38 8c88 a039
000002e0: 2566 543a 5d67 a6ba 70e4 0a3b c9d9 41b9
000002f0: bcee 413a fedf 3e3b fc7f 50ba f3dc dd3a
-0.0012055897 0.001397629 0.0011665814 0.0010107893 -0.00016457449 -0.0006184381 0.001052039 0.0009241683
0.0028108626 0.0026851268 -0.00035786143 0.0019968392 0.001819378 -0.0019613556 0.0008915858 -8.8967485e-05
-0.0016549793 0.002103782 0.0011569331 -0.00028602942 -0.0012724948 0.0005542763 -0.0012262899 0.0012407207
-0.0018209018 0.0011642397 -0.0014377573 0.0006112884 0.0009952903 1.6771797e-05 -0.0002157741 -0.0011195884
0.00045928374 0.0013117191 -0.0011254231 -0.0013322223 -0.00090581324 0.00024968872 -0.0006197472 0.0021623834
-0.002995187 0.00086577196 8.478632e-05 -0.00039671978 0.00058218505 0.00044347718 0.00017577462 7.8660036e-05
-0.00015530818 0.00074264285 -0.00026918494 -0.0006020347 0.0023880056 0.00012452158 0.00097471545 0.00096910185
0.00060208247 -0.0018843561 -4.1064304e-06 -0.00105244 -0.0017319798 -0.00068962865 -0.0017855766 0.00014191528
-0.00096220826 -0.0014027479 0.0011925618 0.000781988 0.0008686094 -0.00041974222 0.0010260178 -0.0006289981
0.00041905558 -0.0027079883 0.0016780642 -0.00045294748 -0.00042184195 0.0005432425 -0.0004942086 -0.00031467678
-0.0005515104 0.0012278423 -0.0013789642 0.0003734504 -0.002758778 -0.001559788 -0.0007751558 0.0009072298
-0.0015152809 0.0014418475 0.0004581229 0.00084050745 0.0002146012 -0.0011700258 0.0025513377 -4.015182e-05
0.00042847046 -0.0018452222 -0.0009323764 -0.00039759246 0.0001440323 0.00019701227 0.0006369781 0.0006875817
6.601203e-05 0.0006994521 -0.000987671 0.001524885 -0.00014991731 0.00016646349 0.000386342 0.00028760027
0.0013552923 -0.0012066035 0.0013928367 -0.0008179059 -0.00030995146 0.0018288812 0.0010190444 0.00054393907
0.0013469388 -0.0001667847 1.4315713e-05 0.005287073 -0.001394691 9.9431396e-05 0.0003504071 -0.00079324015
-0.0014511587 -6.0754584e-05 0.00041796002 0.0013104134 0.0009967507 3.1002408e-05 0.000403726 0.0023322331
0.0017491368 -0.0025505386 0.002130785 0.00020373642 0.001567174 0.002256695 -0.0027996977 -0.0012692737
0.0005307746 -0.00014675152 0.00079912087 0.0013102061 0.00078281073 0.00011642119 0.0010936114 0.0008518717
0.0008719221 -0.00036300425 -0.001339894 -0.001458671 0.0009314765 0.0008406352 -0.00095070427 -0.0001552516
0.0014398866 0.0005507566 -0.000590855 0.00047842725 0.0022039048 0.0005748168 0.0017124164 1.5890912e-05
-0.00033008188 -0.002281794 0.00010238706 -0.00057207147 0.00068054674 -0.00038693068 0.00058551814 0.0015713165
0.00032663453 -0.00048791172 -0.0021915026 0.000113591595 0.00075982756 -0.0006492881 7.569671e-05 0.00030619313
0.0008102379 -0.00126956 0.0021193288 -0.00018487046 0.000739794 0.002912521 -0.00079536415 0.001692681

p_head.4.bias f4 [3]
00000000: 0000 0000 0000 0000 0000 0000
0.0 0.0 0.0
